…
<li><p>yolov3.cfg (236 MB COCO Yolo v3) - requires 4 GB GPU-RAM: <a href="https://pjreddie.com/media/files/yolov3.weights" target="_blank" rel="noopener">yolov3.weights</a></p>
</li>
<li><p>yolov2.cfg (194 MB COCO Yolo v2) - requires 4 GB GPU-RAM: <a href="https://pjreddie.com/media/files/yolov2.weights" target="_blank" rel="noopener">yolov2.weights</a></p>
</li>
</ul>
<h2 id="demo"><a href="#demo" class="headerlink" title="demo"></a>demo</h2><h3 id="yolov2"><a href="#yolov2" class="headerlink" title="yolov2"></a>yolov2</h3><pre><code>sh ./image_yolov2.sh 
</code></pre><p>or </p>
<pre><code>./darknet detector test ./cfg/coco.data ./cfg/yolov2.cfg ./yolov2.weights data/dog.jpg -i 0 -thresh 0.2
</code></pre><p>output </p>
<pre><code> 29 conv   1024  3 x 3 / 1    13 x  13 x1280   -&gt;    13 x  13 x1024 3.987 BF
  30 conv    425  1 x 1 / 1    13 x  13 x1024   -&gt;    13 x  13 x 425 0.147 BF
  31 detection
mask_scale: Using default &apos;1.000000&apos;
Total BFLOPS 29.475 
Loading weights from ./yolov2.weights...
 seen 32 
Done!
data/dog.jpg: Predicted in 0.000000 milli-seconds.
dog: 79%
bicycle: 84%
truck: 77%
Not compiled with OpenCV, saving to predictions.png instead
</code></pre><p>view results</p>
<pre><code>eog prediction.png
</code></pre><p><img src="https://img2018.cnblogs.com/blog/635233/201811/635233-20181101092346394-624545348.png" alt="yolov2 result"></p>
<h3 id="yolov3"><a href="#yolov3" class="headerlink" title="yolov3"></a>yolov3</h3><pre><code>sh ./image_yolov3.sh 
</code></pre><p>or </p>
<pre><code>./darknet detector test ./cfg/coco.data ./cfg/yolov3.cfg ./yolov3.weights data/dog.jpg -i 0 -thresh 0.25
</code></pre><p>output </p>
<pre><code>104 conv    256  3 x 3 / 1    52 x  52 x 128   -&gt;    52 x  52 x 256 1.595 BF
 105 conv    255  1 x 1 / 1    52 x  52 x 256   -&gt;    52 x  52 x 255 0.353 BF
 106 yolo
Total BFLOPS 65.864 
Loading weights from ./yolov3.weights...
 seen 64 
Done!
data/dog.jpg: Predicted in 0.000000 milli-seconds.
bicycle: 99%
dog: 100%
truck: 93%
Not compiled with OpenCV, saving to predictions.png instead
</code></pre><p>view results</p>
<pre><code>eog prediction.png
</code></pre><p><img src="https://img2018.cnblogs.com/blog/635233/201811/635233-20181101092732467-1537995113.png" alt="yolov3 result"></p>
<h3 id="uselib"><a href="#uselib" class="headerlink" title="uselib"></a>uselib</h3><pre><code>./uselib data/dog.jpg
</code></pre><p>output </p>
<pre><code>100 conv    256  3 x 3 / 1    52 x  52 x 128   -&gt;    52 x  52 x 256 1.595 BF
 101 conv    128  1 x 1 / 1    52 x  52 x 256   -&gt;    52 x  52 x 128 0.177 BF
 102 conv    256  3 x 3 / 1    52 x  52 x 128   -&gt;    52 x  52 x 256 1.595 BF
 103 conv    128  1 x 1 / 1    52 x  52 x 256   -&gt;    52 x  52 x 128 0.177 BF
 104 conv    256  3 x 3 / 1    52 x  52 x 128   -&gt;    52 x  52 x 256 1.595 BF
 105 conv    255  1 x 1 / 1    52 x  52 x 256   -&gt;    52 x  52 x 255 0.353 BF
 106 yolo
Total BFLOPS 65.864 
Loading weights from yolov3.weights...
 seen 64 
Done!
object names loaded 
input image or video filename: dog - obj_id = 16,  x = 123, y = 223, w = 196, h = 319, prob = 0.998
truck - obj_id = 7,  x = 474, y = 87, w = 216, h = 78, prob = 0.931
bicycle - obj_id = 1,  x = 117, y = 124, w = 451, h = 308, prob = 0.99
</code></pre><h3 id="darknet-py"><a href="#darknet-py" class="headerlink" title="darknet.py"></a>darknet.py</h3><pre><code>python darknet.py
…
