…
ode class="language-bash">eog prediction.png</code></pre><p><img src="https://img2018.cnblogs.com/blog/635233/201811/635233-20181101092346394-624545348.png" alt="yolov2 result"></p><h4 id="yolov3"><a href="#yolov3" class="headerlink" title="yolov3"></a>yolov3</h4><pre class=" language-bash"><code class="language-bash">sh ./image_yolov3.sh </code></pre><p>or</p><pre class=" language-bash"><code class="language-bash">./darknet detector <span class="token function">test</span> ./cfg/coco.data ./cfg/yolov3.cfg ./yolov3.weights data/dog.jpg -i 0 -thresh 0.25</code></pre><p>output</p><pre><code>104 conv    256  3 x 3 / 1    52 x  52 x 128   -&gt;    52 x  52 x 256 1.595 BF 105 conv    255  1 x 1 / 1    52 x  52 x 256   -&gt;    52 x  52 x 255 0.353 BF 106 yoloTotal BFLOPS 65.864 Loading weights from ./yolov3.weights... seen 64 Done!data/dog.jpg: Predicted in 0.000000 milli-seconds.bicycle: 99%dog: 100%truck: 93%Not compiled with OpenCV, saving to predictions.png instead</code></pre><p>view results</p><pre class=" language-bash"><code class="language-bash">eog prediction.png</code></pre><p><img src="https://img2018.cnblogs.com/blog/635233/201811/635233-20181101092732467-1537995113.png" alt="yolov3 result"></p><h4 id="uselib"><a href="#uselib" class="headerlink" title="uselib"></a>uselib</h4><pre class=" language-bash"><code class="language-bash">./uselib data/dog.jpg</code></pre><p>output</p><pre><code>100 conv    256  3 x 3 / 1    52 x  52 x 128   -&gt;    52 x  52 x 256 1.595 BF 101 conv    128  1 x 1 / 1    52 x  52 x 256   -&gt;    52 x  52 x 128 0.177 BF 102 conv    256  3 x 3 / 1    52 x  52 x 128   -&gt;    52 x  52 x 256 1.595 BF 103 conv    128  1 x 1 / 1    52 x  52 x 256   -&gt;    52 x  52 x 128 0.177 BF 104 conv    256  3 x 3 / 1    52 x  52 x 128   -&gt;    52 x  52 x 256 1.595 BF 105 conv    255  1 x 1 / 1    52 x  52 x 256   -&gt;    52 x  52 x 255 0.353 BF 106 yoloTotal BFLOPS 65.864 Loading weights from yolov3.weights... seen 64 Done!object names loaded input image or video filename: dog - obj_id = 16,  x = 123, y = 223, w = 196, h = 319, prob = 0.998truck - obj_id = 7,  x = 474, y = 87, w = 216, h = 78, prob = 0.931bicycle - obj_id = 1,  x = 117, y = 124, w = 451, h = 308, prob = 0.99</code></p
…
